…
{'loss': 0.923, 'grad_norm': 2.203125, 'learning_rate': 3.5948677389568976e-10, 'epoch': 0.99}
{'loss': 0.9085, 'grad_norm': 2.21875, 'learning_rate': 2.0221343057791332e-10, 'epoch': 1.0}
{'loss': 0.9171, 'grad_norm': 2.25, 'learning_rate': 8.987330891635504e-11, 'epoch': 1.0}
{'loss': 0.9092, 'grad_norm': 2.296875, 'learning_rate': 2.2468428195199233e-11, 'epoch': 1.0}
{'loss': 0.8996, 'grad_norm': 2.265625, 'learning_rate': 0.0, 'epoch': 1.0}
{'train_runtime': 15428.1251, 'train_samples_per_second': 12.769, 'train_steps_per_second': 0.049, 'train_loss': 0.9318162352838782, 'epoch': 1.0}
(MistralForCausalLM(   (model): MistralModel(     (embed_tokens): Embedding(32000, 4096)     (layers): ModuleList(       (0-31): 32 x MistralDecoderLayer(         (self_attn): MistralAttention(           (q_proj): Linear(in_features=4096, out_features=4096, bias=False)           (k_proj): Linear(in_features=4096, out_features=1024, bias=False)           (v_proj): Linear(in_features=4096, out_features=1024, bias=False)           (o_proj): Linear(in_features=4096, out_features=4096, bias=False)           (rotary_emb): MistralRotaryEmbedding()         )         (mlp): MistralMLP(           (gate_proj): Linear(in_features=4096, out_features=14336, bias=False)           (up_proj): Linear(in_features=4096, out_features=14336, bias=False)           (down_proj): Linear(in_features=14336, out_features=4096, bias=False)           (act_fn): SiLU()         )         (input_layernorm): MistralRMSNorm()         (post_attention_layernorm): MistralRMSNorm()       )     )     (norm): MistralRMSNorm()   )   (lm_head): Linear(in_features=4096, out_features=32000, bias=False) ), LlamaTokenizer(name_or_path='alpindale/Mistral-7B-v0.2-hf', vocab_size=32000, model_max_length=1000000000000000019884624838656, is_fast=False, padding_side='right', truncation_side='right', special_tokens={'bos_token': '<s>', 'eos_token': '</s>', 'unk_token': '<unk>', 'pad_token': '</s>'}, clean_up_tokenization_spaces=False),  added_tokens_decoder={ 	0: AddedToken("<unk>", rstrip=False, lstrip=False, single_word=False, normalized=False, special=True), 	1: AddedToken("<s>", rstrip=False, lstrip=False, single_word=False, normalized=False, special=True), 	2: AddedToken("</s>", rstrip=False, lstrip=False, single_word=False, normalized=False, special=True), })
(MistralForCausalLM(   (model): MistralModel(     (embed_tokens): Embedding(32000, 4096)     (layers): ModuleList(       (0-31): 32 x MistralDecoderLayer(         (self_attn): MistralAttention(           (q_proj): Linear(in_features=4096, out_features=4096, bias=False)           (k_proj): Linear(in_features=4096, out_features=1024, bias=False)           (v_proj): Linear(in_features=4096, out_features=1024, bias=False)           (o_proj): Linear(in_features=4096, out_features=4096, bias=False)           (rotary_emb): MistralRotaryEmbedding()         )         (mlp): MistralMLP(           (gate_proj): Linear(in_features=4096, out_features=14336, bias=False)           (up_proj): Linear(in_features=4096, out_features=14336, bias=False)           (down_proj): Linear(in_features=14336, out_features=4096, bias=False)           (act_fn): SiLU()         )         (input_layernorm): MistralRMSNorm()         (post_attention_layernorm): MistralRMSNorm()       )     )     (norm): MistralRMSNorm()   )   (lm_head): Linear(in_features=4096, out_features=32000, bias=False) ), LlamaTokenizer(name_or_path='alpindale/Mistral-7B-v0.2-hf', vocab_size=32000, model_max_length=1000000000000000019884624838656, is_fast=False, padding_side='right', truncation_side='right', special_tokens={'bos_token': '<s>', 'eos_token': '</s>', 'unk_token': '<unk>', 'pad_token': '</s>'}, clean_up_tokenization_spaces=False),  added_tokens_decoder={ 	0: AddedToken("<unk>", rstrip=False, lstrip=False, single_word=False, normalized=False, special=True), 	1: AddedToken("<s>", rstrip=False, lstrip=False, single_word=False, normalized=False, special=True), 	2: AddedToken("</s>", rstrip=False, lstrip=False, single_word=False, normalized=False, special=True), })
(MistralForCausalLM(   (model): MistralModel(     (embed_tokens): Embedding(32000, 4096)     (layers): ModuleList(       (0-31): 32 x MistralDecoderLayer(         (self_attn): MistralAttention(           (q_proj): Linear(in_features=4096, out_features=4096, bias=False)           (k_proj): Linear(in_features=4096, out_features=1024, bias=False)           (v_proj): Linear(in_features=4096, out_features=1024, bias=False)           (o_proj): Linear(in_features=4096, out_features=4096, bias=False)           (rotary_emb): MistralRotaryEmbedding()         )         (mlp): MistralMLP(           (gate_proj): Linear(in_features=4096, out_features=14336, bias=False)           (up_proj): Linear(in_features=4096, out_features=14336, bias=False)           (down_proj): Linear(in_features=14336, out_features=4096, bias=False)           (act_fn): SiLU()         )         (input_layernorm): MistralRMSNorm()         (post_attention_layernorm): MistralRMSNorm()       )     )     (norm): MistralRMSNorm()   )   (lm_head): Linear(in_features=4096, out_features=32000, bias=False) ), LlamaTokenizer(name_or_path='alpindale/Mistral-7B-v0.2-hf', vocab_size=32000, model_max_length=1000000000000000019884624838656, is_fast=False, padding_side='right', truncation_side='right', special_tokens={'bos_token': '<s>', 'eos_token': '</s>', 'unk_token': '<unk>', 'pad_token': '</s>'}, clean_up_tokenization_spaces=False),  added_tokens_decod
…
