…
{'loss': 0.773, 'grad_norm': 2.421875, 'learning_rate': 3.455675378100099e-11, 'epoch': 3.93}
{'loss': 0.799, 'grad_norm': 2.46875, 'learning_rate': 1.9438193593623866e-11, 'epoch': 3.93}
{'loss': 0.7938, 'grad_norm': 2.640625, 'learning_rate': 8.63920337240698e-12, 'epoch': 3.93}
{'loss': 0.792, 'grad_norm': 2.421875, 'learning_rate': 2.15980177603603e-12, 'epoch': 3.93}
{'loss': 0.7815, 'grad_norm': 2.5, 'learning_rate': 0.0, 'epoch': 3.94}
{'train_runtime': 48890.7377, 'train_samples_per_second': 16.117, 'train_steps_per_second': 0.049, 'train_loss': 0.842395084425807, 'epoch': 3.94}
(MistralForCausalLM(   (model): MistralModel(     (embed_tokens): Embedding(32000, 4096)     (layers): ModuleList(       (0-31): 32 x MistralDecoderLayer(         (self_attn): MistralAttention(           (q_proj): Linear(in_features=4096, out_features=4096, bias=False)           (k_proj): Linear(in_features=4096, out_features=1024, bias=False)           (v_proj): Linear(in_features=4096, out_features=1024, bias=False)           (o_proj): Linear(in_features=4096, out_features=4096, bias=False)           (rotary_emb): MistralRotaryEmbedding()         )         (mlp): MistralMLP(           (gate_proj): Linear(in_features=4096, out_features=14336, bias=False)           (up_proj): Linear(in_features=4096, out_features=14336, bias=False)           (down_proj): Linear(in_features=14336, out_features=4096, bias=False)           (act_fn): SiLU()         )         (input_layernorm): MistralRMSNorm()         (post_attention_layernorm): MistralRMSNorm()       )     )     (norm): MistralRMSNorm()   )   (lm_head): Linear(in_features=4096, out_features=32000, bias=False) ), LlamaTokenizer(name_or_path='alpindale/Mistral-7B-v0.2-hf', vocab_size=32000, model_max_length=1000000000000000019884624838656, is_fast=False, padding_side='right', truncation_side='right', special_tokens={'bos_token': '<s>', 'eos_token': '</s>', 'unk_token': '<unk>', 'pad_token': '</s>'}, clean_up_tokenization_spaces=False),  added_tokens_decoder={ 	0: AddedToken("<unk>", rstrip=False, lstrip=False, single_word=False, normalized=False, special=True), 	1: AddedToken("<s>", rstrip=False, lstrip=False, single_word=False, normalized=False, special=True), 	2: AddedToken("</s>", rstrip=False, lstrip=False, single_word=False, normalized=False, special=True), })
(MistralForCausalLM(   (model): MistralModel(     (embed_tokens): Embedding(32000, 4096)     (layers): ModuleList(       (0-31): 32 x MistralDecoderLayer(         (self_attn): MistralAttention(           (q_proj): Linear(in_features=4096, out_features=4096, bias=False)           (k_proj): Linear(in_features=4096, out_features=1024, bias=False)           (v_proj): Linear(in_features=4096, out_features=1024, bias=False)           (o_proj): Linear(in_features=4096, out_features=4096, bias=False)           (rotary_emb): MistralRotaryEmbedding()         )         (mlp): MistralMLP(           (gate_proj): Linear(in_features=4096, out_features=14336, bias=False)           (up_proj): Linear(in_features=4096, out_features=14336, bias=False)           (down_proj): Linear(in_features=14336, out_features=4096, bias=False)           (act_fn): SiLU()         )         (input_layernorm): MistralRMSNorm()         (post_attention_layernorm): MistralRMSNorm()       )     )     (norm): MistralRMSNorm()   )   (lm_head): Linear(in_features=4096, out_features=32000, bias=False) ), LlamaTokenizer(name_or_path='alpindale/Mistral-7B-v0.2-hf', vocab_size=32000, model_max_length=1000000000000000019884624838656, is_fast=False, padding_side='right', truncation_side='right', special_tokens={'bos_token': '<s>', 'eos_token': '</s>', 'unk_token': '<unk>', 'pad_token': '</s>'}, clean_up_tokenization_spaces=False),  added_tokens_decoder={ 	0: AddedToken("<unk>", rstrip=False, lstrip=False, single_word=False, normalized=False, special=True), 	1: AddedToken("<s>", rstrip=False, lstrip=False, single_word=False, normalized=False, special=True), 	2: AddedToken("</s>", rstrip=False, lstrip=False, single_word=False, normalized=False, special=True), })
(MistralForCausalLM(   (model): MistralModel(     (embed_tokens): Embedding(32000, 4096)     (layers): ModuleList(       (0-31): 32 x MistralDecoderLayer(         (self_attn): MistralAttention(           (q_proj): Linear(in_features=4096, out_features=4096, bias=False)           (k_proj): Linear(in_features=4096, out_features=1024, bias=False)           (v_proj): Linear(in_features=4096, out_features=1024, bias=False)           (o_proj): Linear(in_features=4096, out_features=4096, bias=False)           (rotary_emb): MistralRotaryEmbedding()         )         (mlp): MistralMLP(           (gate_proj): Linear(in_features=4096, out_features=14336, bias=False)           (up_proj): Linear(in_features=4096, out_features=14336, bias=False)           (down_proj): Linear(in_features=14336, out_features=4096, bias=False)           (act_fn): SiLU()         )         (input_layernorm): MistralRMSNorm()         (post_attention_layernorm): MistralRMSNorm()       )     )     (norm): MistralRMSNorm()   )   (lm_head): Linear(in_features=4096, out_features=32000, bias=False) ), LlamaTokenizer(name_or_path='alpindale/Mistral-7B-v0.2-hf', vocab_size=32000, model_max_length=1000000000000000019884624838656, is_fast=False, padding_side='right', truncation_side='right', special_tokens={'bos_token': '<s>', 'eos_token': '</s>', 'unk_token': '<unk>', 'pad_token': '</s>'}, clean_up_tokenization_spaces=False),  added_tokens_decoder={ 	0: AddedToken("<unk>", rstrip=False, lstrip=False, single_word=False, normalized=False, special=True), 	1: AddedToken("<s>", rstrip=False, lstrip=False, single_word=False, normalized=False, special=True), 	2: AddedToken("</s>", rstrip=False, lstrip=False, single_word=False, normalized=False, special=True), })
[2024-04-16 07:02:14,994] [INFO] [axolotl.train.log:61] [PID:2029946] [RANK:0] Training Completed!!! Saving pre-trained model to /mnt/nas/suehyun/axolotl/outputs/mpa/mistral-7b-v0.2-hf-no-sys-sft[39m
(MistralForCausalLM(   (model): MistralModel(     (embed_tokens): Embedding(32000, 4096)     (layers): ModuleList(       (0-31): 32 x MistralDecoderLayer(         (self_attn): MistralAttention(           (q_proj): Linear(in_features=4096, out_features=4096, bias=False)           (k_proj): Linear(in_features=4096, out_features=1024, bias=False)           (v_proj): Linear(in_features=4096, out_features=1024, bias=False)           (o_proj): Linear(in_features=4096, out_features=4096, bias=False)           (rotary_emb): MistralRotaryEmbedding()         )         (mlp): MistralMLP(           (gate_proj): Linear(in_features=4096, out_features=14336, bias=False)           (up_proj): Linear(in_features=4096, out_features=14336, bias=False)           (down_proj): Linear(in_features=14336, out_features=4096, bias=False)           (act_fn): SiLU()         )         (input_layernorm): MistralRMSNorm()         (post_attention_layernorm): MistralRMSNorm()       )     )     (norm): MistralRMSNorm()   )   (lm_head): Linear(in_features=4096, out_features=32000, bias=False) ), LlamaTokenizer(name_or_path='alpindale/Mistral-7B-v0.2-hf', vocab_size=32000, model_max_length=1000000000000000019884624838656, is_fast=False, padding_side='right', truncation_side='right', special_tokens={'bos_token': '<s>', 'eos_token': '</s>', 'unk_token': '<unk>', 'pad_token': '</s>'}, clean_up_tokenization_spaces=False),  added_tokens_decod
…
