…
{'loss': 0.6814, 'grad_norm': 2.453125, 'learning_rate': 4.2437393768079983e-10, 'epoch': 3.91}
{'loss': 0.6705, 'grad_norm': 2.5, 'learning_rate': 2.387132947151427e-10, 'epoch': 3.91}
{'loss': 0.6809, 'grad_norm': 2.484375, 'learning_rate': 1.0609573568132192e-10, 'epoch': 3.92}
{'loss': 0.6577, 'grad_norm': 2.484375, 'learning_rate': 2.6524074625555728e-11, 'epoch': 3.92}
{'loss': 0.6639, 'grad_norm': 2.484375, 'learning_rate': 0.0, 'epoch': 3.93}
{'train_runtime': 15161.5664, 'train_samples_per_second': 16.731, 'train_steps_per_second': 0.046, 'train_loss': 0.7425255595431851, 'epoch': 3.93}
(MistralForCausalLM(   (model): MistralModel(     (embed_tokens): Embedding(32000, 4096)     (layers): ModuleList(       (0-31): 32 x MistralDecoderLayer(         (self_attn): MistralAttention(           (q_proj): Linear(in_features=4096, out_features=4096, bias=False)           (k_proj): Linear(in_features=4096, out_features=1024, bias=False)           (v_proj): Linear(in_features=4096, out_features=1024, bias=False)           (o_proj): Linear(in_features=4096, out_features=4096, bias=False)           (rotary_emb): MistralRotaryEmbedding()         )         (mlp): MistralMLP(           (gate_proj): Linear(in_features=4096, out_features=14336, bias=False)           (up_proj): Linear(in_features=4096, out_features=14336, bias=False)           (down_proj): Linear(in_features=14336, out_features=4096, bias=False)           (act_fn): SiLU()         )         (input_layernorm): MistralRMSNorm()         (post_attention_layernorm): MistralRMSNorm()       )     )     (norm): MistralRMSNorm()   )   (lm_head): Linear(in_features=4096, out_features=32000, bias=False) ), LlamaTokenizer(name_or_path='alpindale/Mistral-7B-v0.2-hf', vocab_size=32000, model_max_length=1000000000000000019884624838656, is_fast=False, padding_side='right', truncation_side='right', special_tokens={'bos_token': '<s>', 'eos_token': '</s>', 'unk_token': '<unk>', 'pad_token': '</s>'}, clean_up_tokenization_spaces=False),  added_tokens_decoder={ 	0: AddedToken("<unk>", rstrip=False, lstrip=False, single_word=False, normalized=False, special=True), 	1: AddedToken("<s>", rstrip=False, lstrip=False, single_word=False, normalized=False, special=True), 	2: AddedToken("</s>", rstrip=False, lstrip=False, single_word=False, normalized=False, special=True), })
(MistralForCausalLM(   (model): MistralModel(     (embed_tokens): Embedding(32000, 4096)     (layers): ModuleList(       (0-31): 32 x MistralDecoderLayer(         (self_attn): MistralAttention(           (q_proj): Linear(in_features=4096, out_features=4096, bias=False)           (k_proj): Linear(in_features=4096, out_features=1024, bias=False)           (v_proj): Linear(in_features=4096, out_features=1024, bias=False)           (o_proj): Linear(in_features=4096, out_features=4096, bias=False)           (rotary_emb): MistralRotaryEmbedding()         )         (mlp): MistralMLP(           (gate_proj): Linear(in_features=4096, out_features=14336, bias=False)           (up_proj): Linear(in_features=4096, out_features=14336, bias=False)           (down_proj): Linear(in_features=14336, out_features=4096, bias=False)           (act_fn): SiLU()         )         (input_layernorm): MistralRMSNorm()         (post_attention_layernorm): MistralRMSNorm()       )     )     (norm): MistralRMSNorm()   )   (lm_head): Linear(in_features=4096, out_features=32000, bias=False) ), LlamaTokenizer(name_or_path='alpindale/Mistral-7B-v0.2-hf', vocab_size=32000, model_max_length=1000000000000000019884624838656, is_fast=False, padding_side='right', truncation_side='right', special_tokens={'bos_token': '<s>', 'eos_token': '</s>', 'unk_token': '<unk>', 'pad_token': '</s>'}, clean_up_tokenization_spaces=False),  added_tokens_decoder={ 	0: AddedToken("<unk>", rstrip=False, lstrip=False, single_word=False, normalized=False, special=True), 	1: AddedToken("<s>", rstrip=False, lstrip=False, single_word=False, normalized=False, special=True), 	2: AddedToken("</s>", rstrip=False, lstrip=False, single_word=False, normalized=False, special=True), })
(MistralForCausalLM(   (model): MistralModel(     (embed_tokens): Embedding(32000, 4096)     (layers): ModuleList(       (0-31): 32 x MistralDecoderLayer(         (self_attn): MistralAttention(           (q_proj): Linear(in_features=4096, out_features=4096, bias=False)           (k_proj): Linear(in_features=4096, out_features=1024, bias=False)           (v_proj): Linear(in_features=4096, out_features=1024, bias=False)           (o_proj): Linear(in_features=4096, out_features=4096, bias=False)           (rotary_emb): MistralRotaryEmbedding()         )         (mlp): MistralMLP(           (gate_proj): Linear(in_features=4096, out_features=14336, bias=False)           (up_proj): Linear(in_features=4096, out_features=14336, bias=False)           (down_proj): Linear(in_features=14336, out_features=4096, bias=False)           (act_fn): SiLU()         )         (input_layernorm): MistralRMSNorm()         (post_attention_layernorm): MistralRMSNorm()       )     )     (norm): MistralRMSNorm()   )   (lm_head): Linear(in_features=4096, out_features=32000, bias=False) ), LlamaTokenizer(name_or_path='alpindale/Mistral-7B-v0.2-hf', vocab_size=32000, model_max_length=1000000000000000019884624838656, is_fast=False, padding_side='right', truncation_side='right', special_tokens={'bos_token': '<s>', 'eos_token': '</s>', 'unk_token': '<unk>', 'pad_token': '</s>'}, clean_up_tokenization_spaces=False),  added_tokens_decoder={ 	0: AddedToken("<unk>", rstrip=False, lstrip=False, single_word=False, normalized=False, special=True), 	1: AddedToken("<s>", rstrip=False, lstrip=False, single_word=False, normalized=False, special=True), 	2: AddedToken("</s>", rstrip=False, lstrip=False, single_word=False, normalized=False, special=True), })
[2024-04-20 12:36:17,499] [INFO] [axolotl.train.log:61] [PID:348503] [RANK:0] Training Completed!!! Saving pre-trained model to /mnt/nas/suehyun/axolotl/outputs/mpa/mpa-Mistral-7b-v0.2-hf-default-sys-sft-66k[39m
(MistralForCausalLM(   (model): MistralModel(     (embed_tokens): Embedding(32000, 4096)     (layers): ModuleList(       (0-31): 32 x MistralDecoderLayer(         (self_attn): MistralAttention(           (q_proj): Linear(in_features=4096, out_features=4096, bias=False)           (k_proj): Linear(in_features=4096, out_features=1024, bias=False)           (v_proj): Linear(in_features=4096, out_features=1024, bias=False)           (o_proj): Linear(in_features=4096, out_features=4096, bias=False)           (rotary_emb): MistralRotaryEmbedding()         )         (mlp): MistralMLP(           (gate_proj): Linear(in_features=4096, out_features=14336, bias=False)           (up_proj): Linear(in_features=4096, out_features=14336, bias=False)           (down_proj): Linear(in_features=14336, out_features=4096, bias=False)           (act_fn): SiLU()         )         (input_layernorm): MistralRMSNorm()         (post_attention_layernorm): MistralRMSNorm()       )     )     (norm): MistralRMSNorm()   )   (lm_head): Linear(in_features=4096, out_features=32000, bias=False) ), LlamaTokenizer(name_or_path='alpindale/Mistral-7B-v0.2-hf', vocab_size=32000, model_max_length=1000000000000000019884624838656, is_fast=False, padding_side='right', truncation_side='right', special_tokens={'bos_token': '<s>', 'eos_token': '</s>', 'unk_token': '<unk>', 'pad_token': '</s>'}, clean_up_tokenization_spaces=False),  added_tokens_decod
…
